Day2/NewModel.pt (torch, 3416 bytes, 3 tensors)

weight f4 [5, 10]
000000 86 9f a5 bd 05 8e 3e 3e 15 20 ed 3c 4c f4 8b 3e
       -0.08087067 0.18608864 0.028945962 0.2733482
000010 6a ef 94 3e d9 e6 90 3d e0 21 a4 3e 1f 43 3c be
       0.29088908 0.07075281 0.32057095 -0.1838498
000020 9f 19 49 bd 0e a2 eb 3c 70 00 a0 3e 19 53 8a 3e
       -0.0490967 0.028763797 0.31250334 0.27016523
000030 32 15 b2 bc 81 15 98 3d db ad d6 3c ce 40 1e 3e
       -0.021738622 0.074259765 0.026205948 0.15454409
000040 da b4 62 be ae 1c 03 3d 47 aa 6a 3e 77 09 dd bd
       -0.22139302 0.032009773 0.22916518 -0.10792821
000050 66 26 fd be 8b 75 a9 3e 60 95 9e 3e f8 87 2c 3e
       -0.49443358 0.3309749 0.3097334 0.16848743
000060 48 f2 cf bc 55 4a a7 be f8 8a 85 be 89 ea 88 be
       -0.025384083 -0.32673898 -0.26082587 -0.26741436
000070 00 a7 f0 bb a5 c0 15 3d 56 5b 48 3f e6 55 c9 3d
       -0.0073441267 0.036560673 0.7826437 0.09830837
000080 86 c3 09 3b 6a cd 81 be d8 f8 80 3d ca bb df bd
       0.0021021082 -0.2535203 0.06297463 -0.1092449
000090 e2 09 23 3e ea 0b 5c bd fb da 6b 3e 41 ee c3 3d
       0.15921739 -0.0537223 0.23032753 0.09566928
0000a0 7a bc 73 ba 0b 4b 93 be aa 8a 2a bd b5 65 ac 3e
       -0.00092977996 -0.2876819 -0.041636147 0.33671346
0000b0 04 cc 92 3c 5b b2 95 bd 76 28 53 bc ea 60 af 3e
       0.017919548 -0.07309409 -0.012888065 0.34253627
0000c0 4d 99 91 3c 2f 41 6e 3d
       0.017773295 0.058167633

bias f4 [5]
000000 50 95 e9 3c 9e 1d 46 be 8c cd 23 be c5 f6 42 be
       0.02851358 -0.19347236 -0.15996379 -0.19039448
000010 ea 11 15 be
       -0.14557615

weight f4 [1, 5]
000000 ab d3 c5 3e a5 c3 ed bd ff 8c 24 bf 57 6f 56 bf
       0.38638052 -0.11609582 -0.6427764 -0.8376364
000010 a1 6a 64 be
       -0.223063
