Day2/NewModel.pt (torch, 3416 bytes, 3 tensors)

weight f4 [5, 10]
00000000: 7de2 0bbf 4586 bdbe db29 ab3e e88e f73d
00000010: e19a e7bd 05bb 923d 665e 0e3e 00d7 7bbd
00000020: bc14 bcbd 7fb4 ffbc 2fbf d13e 3e73 20be
00000030: 6ec6 b83e 9d10 053c bcc2 953d f667 39bd
00000040: 4e96 c23d c509 3b3e a1f0 ac3e abf0 84bd
00000050: 6503 ab3d 6bbc a8be 4e22 2cbe 7dc5 a1bc
00000060: ef07 b83e b613 f5bb f08a f13e 3d82 89be
00000070: a487 033d cf61 f53d 1a9e a2bd 0183 3a3e
00000080: 49c9 00be 1ab0 943e 0e04 27be 5476 5dbe
00000090: b3f1 9f3e b260 d6bd c0a3 e13e a973 4c3e
000000a0: 4e15 f53e 38a3 5c3e a06d 0abe 4218 9fbe
000000b0: cc71 423e afc8 dab9 c7c1 b2bd cbbd 88be
000000c0: a865 a13e 35fe 27be
-0.5464247 -0.37016502 0.3343037 0.12087804 -0.11308838 0.071645774 0.13903198 -0.061484337
-0.09183642 -0.031213997 0.40966174 -0.15668961 0.3608889 0.008121637 0.07312533 -0.04526516
0.095013246 0.18265446 0.33777335 -0.06491216 0.08350257 -0.32956252 -0.16809961 -0.01974749
0.35943553 -0.0074791564 0.47176313 -0.26857176 0.03211178 0.11981546 -0.07940312 0.18214037
-0.12576784 0.29040605 -0.1631014 -0.2162717 0.3123909 -0.10467662 0.44070244 0.19965996
0.47867817 0.21546638 -0.13518381 -0.31073195 0.18988723 -0.0004172972 -0.08728366 -0.267073
0.3152287 -0.16405566

bias f4 [5]
00000000: e7c4 9f3e 09de c73d e999 41be 0ddb 3cbe
00000010: c722 acbe
0.31204912 0.09759147 -0.18906368 -0.18442936 -0.33620283

weight f4 [1, 5]
00000000: abe9 31bf ba1a f93e 0953 3abf 96a5 dbbe
00000010: 55f8 2ebf
-0.69497174 0.48653203 -0.7278295 -0.4289977 -0.68347675
